…
"elapsed":283,"user":{"displayName":"Nicholas Viado","photoUrl":"https://lh3.googleusercontent.com/a-/AOh14Gizan_QTqFniePdy4b4HFoWjl6kdnbONLAAnM5x=s64","userId":"17804541991072215371"}},"outputId":"35bdd4f4-ce66-470d-b15e-d3dae1d32961"},"source":["model.summary()"],"execution_count":243,"outputs":[{"output_type":"stream","text":["Model: \"sequential_28\"\n","_________________________________________________________________\n","Layer (type)                 Output Shape              Param #   \n","=================================================================\n","conv1d_109 (Conv1D)          (None, 40, 256)           4864      \n","_________________________________________________________________\n","dropout_109 (Dropout)        (None, 40, 256)           0         \n","_________________________________________________________________\n","max_pooling1d_55 (MaxPooling (None, 20, 256)           0         \n","_________________________________________________________________\n","conv1d_110 (Conv1D)          (None, 20, 512)           393728    \n","_________________________________________________________________\n","dropout_110 (Dropout)        (None, 20, 512)           0         \n","_________________________________________________________________\n","max_pooling1d_56 (MaxPooling (None, 10, 512)           0         \n","_________________________________________________________________\n","conv1d_111 (Conv1D)          (None, 10, 512)           786944    \n","_________________________________________________________________\n","dropout_111 (Dropout)        (None, 10, 512)           0         \n","_________________________________________________________________\n","up_sampling1d_54 (UpSampling (None, 20, 512)           0         \n","_________________________________________________________________\n","conv1d_112 (Conv1D)          (None, 20, 256)           393472    \n","_________________________________________________________________\n","dropout_112 (Dropout)        (None, 20, 256)           0         \n","_________________________________________________________________\n","up_sampling1d_55 (UpSampling (None, 40, 256)           0         \n","_________________________________________________________________\n","flatten_28 (Flatten)         (None, 10240)             0         \n","_________________________________________________________________\n","dense_28 (Dense)             (None, 4)                 40964     \n","=================================================================\n","Total params: 1,619,972\n","Trainable params: 1,619,972\n","Non-trainable params: 0\n","_________________________________________________________________\n"],"name":"stdout"}]},{"cell_type":"markdown","metadata":{"id":"pUfZ2Vnm_ZIV"},"source":["**Automatic Weights**"]},{"cell_type":"markdown","metadata":{"id":"aTQBGRKx
…
